model.pt (torch_old, 11488 bytes, 4 tensors)

fc1.weight f4 [64, 37]
0	0x3cddb22b	0.027062496
1	0xbe6307b0	-0.22170901
2	0x3e48b4a2	0.19600156
3	0x3d75c433	0.060001563
4	0xbeac74d2	-0.33682877
5	0xbe9ee1cd	-0.31031647
6	0x3e92c591	0.28666356
7	0x3dd366af	0.1032232
8	0xbe4db6e9	-0.20089306
9	0xbf92334e	-1.1421907
10	0x3e418474	0.18898183
11	0xbcb62784	-0.02223564
12	0x3e2905e5	0.16506155
13	0x3d3829ba	0.04496167
14	0x3ea477cd	0.3212265
15	0x3de6272c	0.1123794
16	0xbe4bbc9a	-0.19896165
17	0x3ce2d0f0	0.02768752
18	0xbd64b41d	-0.055835832
19	0xbee5efc8	-0.449095
20	0xbb626721	-0.0034546333
21	0xbb88a748	-0.004170332
22	0x3e1a0936	0.15042576
23	0xbe9df5e4	-0.30851662
24	0xbe35e490	-0.17762971
25	0xbe32bce7	-0.17454873
26	0xbc66c086	-0.014083987
27	0x3d421714	0.04738529
28	0xbf0a8ec2	-0.5412408
29	0xbf938cc1	-1.152733
30	0x3da0ad9b	0.078456126
31	0x3e036f82	0.12835506
32	0x3e8d26ac	0.27568567
33	0xbdf2e4e8	-0.11860067
34	0xbf172a88	-0.5904927
35	0x3c8c46f8	0.017123684
36	0x3cc36823	0.023853367
37	0x3e9847fc	0.2974242
38	0x3e807e37	0.25096294
39	0x3e22fe8c	0.15917414
40	0x3e11cdb3	0.14238624
41	0xbd282674	-0.041052297
42	0x3e871939	0.2638643
43	0x3e8cbeb7	0.27489254
44	0x3e690d79	0.22759046
45	0x3e46e808	0.1942445
46	0x3e2e500d	0.17022724
47	0x3e4003c8	0.18751442
48	0x3e50ea3f	0.20401858
49	0x3e0d47ae	0.13796875
50	0x3e06acfb	0.13151924
51	0xbc10e4f9	-0.008843654
52	0x3e220487	0.1582204
53	0x3ea5d928	0.3239224
54	0x3e86117c	0.26185215
55	0x3e325677	0.17415796
56	0x3cf00520	0.029299319
57	0x3e55e72d	0.20888968
58	0x3e5de18f	0.21668075
59	0x3e499f7d	0.19689746
60	0x3e300d2b	0.17192523
61	0xbb53804a	-0.003227251
62	0x3ebb01e4	0.3652488
63	0x3d9c8e29	0.076443024
64	0x3e4bf6fb	0.19918434
65	0x3d92f60f	0.07175838
66	0x3d822b83	0.063559555
67	0x3e120f0f	0.14263557
68	0x3d192617	0.03738984
69	0x3e0c9a39	0.13730706
70	0x3e8eb78b	0.27874407
71	0x3dcb8c66	0.09938888
72	0x3da95d5c	0.0826976
73	0xbd9be726	-0.076124474
74	0xbdc6bb3d	-0.097036816
75	0xbdc162af	-0.094426505
76	0xbd4c5947	-0.04988983
77	0xbdb9e368	-0.090765774
78	0xbd7ac6e3	-0.06122483
79	0x3d1a5784	0.037681118
80	0xbe7e0ffa	-0.24810782
81	0x3dde8758	0.108656585
82	0x3e33ad89	0.17546667
83	0x3dc263c2	0.094916835
84	0x3e82288d	0.25421563
85	0xbec67dea	-0.3876794
86	0x3d387500	0.045033455
87	0x3da23921	0.07921053
88	0xbf1886e7	-0.59580845
89	0x3e086629	0.13320221
90	0x3d6c37c0	0.057670355
91	0xbd971825	-0.07377652
92	0xbda2990c	-0.079393476
93	0x3e5696b6	0.20955929
94	0x3cca266b	0.024676522
95	0xbd014cde	-0.031567447
96	0xbd2dd91d	-0.042443383
97	0xbb58548a	-0.0033009374
98	0xbdb7da81	-0.08977223
99	0xbe6a2a43	-0.22867684
100	0x3d6eba63	0.05828322
101	0x3d2911a9	0.041276608
102	0xbe0d4340	-0.13795185
103	0xbdac7fd6	-0.0842282
104	0x3e1cf0d3	0.15326242
105	0xbe0d7f60	-0.13818121
106	0xbea81f01	-0.32836154
107	0xbe36f840	-0.17868137
108	0xbe7e8e71	-0.24859025
109	0xbdc49e03	-0.09600451
110	0x3d17ca49	0.03705815
111	0x3e043c17	0.12913547
112	0xbe030fda	-0.12799016
113	0xbcf8e547	-0.030382765
114	0xbd609f8a	-0.05483965
115	0xbe4640de	-0.19360682
116	0x3dd151c8	0.10220677
117	0xbdc96d60	-0.09835315
118	0xbe9027f0	-0.2815547
119	0xbf0adf5e	-0.5424708
120	0xbf9cc54d	-1.2247711
121	0x3d3a3471	0.04546017
122	0xbdd41d94	-0.10357204
123	0x3dad0c19	0.08449573
124	0xbe99749e	-0.29971784
125	0xbe8069da	-0.25080758
126	0xbcfba65e	-0.030718978
127	0xbd6863c4	-0.05673577
128	0x3dab6b4d	0.083700754
129	0xbde803b7	-0.113288336
130	0xbdc9efbd	-0.098601796
131	0x3d9e1d9c	0.07720491
132	0x3d170895	0.03687342
133	0xbcb010ee	-0.021492448
134	0xbdff6098	-0.12469596
135	0xbcf9926e	-0.03046533
136	0xbe562580	-0.20912743
137	0xbe267529	-0.1625563
138	0x3da52177	0.080630235
139	0x3db4b332	0.08823241
140	0xbd7eb826	-0.062187336
141	0xbd957787	-0.07298189
142	0x3de14f6a	0.11001475
143	0xbd92b952	-0.07164253
144	0xbe7b71e0	-0.24555159
145	0x3be6388c	0.007025784
146	0xbea48515	-0.32132784
147	0x3d21d4a4	0.03950943
148	0x3edcdcb9	0.43137148
149	0xbe9a3370	-0.3011737
150	0xbeb6ae88	-0.35680032
151	0xbebbcf35	-0.36681524
152	0xbfc19f9c	-1.5126834
153	0x3d3f646e	0.046726637
154	0x3b45ab17	0.0030161792
155	0x3cdc4d83	0.02689243
156	0xbd01f92a	-0.031731762
157	0x3ccccaa0	0.024998963
158	0x3d9a7616	0.07542054
159	0x3dad33d0	0.08457148
160	0x3d364b19	0.044505212
161	0x3d3085f9	0.043096516
162	0xbddef518	-0.10886592
163	0xbdfe200a	-0.12408455
164	0xbd27b5f1	-0.040944997
165	0x3d15cc4d	0.03657179
166	0x3e0184c0	0.12648296
167	0x3e803b9b	0.25045475
168	0x3cc3e1c0	0.023911357
169	0xbc69bb23	-0.014265808
170	0xbd50ff7d	-0.051024903
171	0xbce626db	-0.0280947
172	0xbd463e6d	-0.048399378
173	0xbdcb4038	-0.09924358
174	0x3cde2521	0.027117314
175	0x3ca7d7ad	0.020488584
176	0xbcaed6cd	-0.02134266
177	0x3c027592	0.007962601
178	0x3d8f53e6	0.06998424
179	0x3bc2d9e1	0.0059463833
180	0x3d688c96	0.0567747
181	0x3e34087d	0.17581363
182	0x3d2e161b	0.04250155
183	0xbd7e464f	-0.06207877
184	0x3c5236d3	0.012830454
185	0x3e1f6e86	0.15569505
186	0xbd109600	-0.0352993
187	0xbbe19ebe	-0.0068853786
188	0xbed2d21e	-0.41175932
189	0xbe4a2b15	-0.19742997
190	0x3e827a26	0.25483817
191	0xbec3db6c	-0.38253343
192	0xbe0ffb3c	-0.14060682
193	0xbe67fe42	-0.22655585
194	0xbf68dcf5	-0.90962154
195	0xbda0798e	-0.07835685
196	0xbdaa9fd2	-0.083312646
197	0xbcdb20f5	-0.026749114
198	0x3d93b57a	0.07212348
199	0x3d899957	0.067187004
200	0xbd8ec539	-0.06971211
201	0x3c378951	0.011202172
202	0xbe364fc1	-0.17803861
203	0xbe12d445	-0.14338787
204	0xbea61ba7	-0.32442972
205	0xbc74fa05	-0.014952187
206	0xbe569497	-0.2095512
207	0xbe3edbfd	-0.18638606
208	0xbe37b688	-0.17940724
209	0x3de3ffbf	0.11132764
210	0x3d5b5c8e	0.053555064
211	0x3d221193	0.03956754
212	0xbd85e7a7	-0.06538325
213	0xbe6376ff	-0.22213362
214	0xbd068035	-0.03283711
215	0x3cd53ea6	0.02603085
216	0x3d013d30	0.031552494
217	0x3d713c84	0.058895603
218	0xbcadeff6	-0.021232586
219	0xbea4addc	-0.32163894
220	0xbd672415	-0.056430895
221	0x3d8b8f53	0.06814446
222	0xbd86aad4	-0.06575552
223	0xbbad047d	-0.005280076
224	0x3c857a1a	0.016293574
225	0x3dc75fec	0.097350925
226	0x3db43ea6	0.08801012
227	0x3e94af07	0.29039785
228	0xbf072de9	-0.5280443
229	0xbf1faf71	-0.6237708
230	0xbf15569b	-0.58335274
231	0xc001f5e8	-2.030634
232	0x3df24985	0.11830429
233	0x3e087ba5	0.13328417
234	0x3e264f5a	0.16241208
235	0x3e346c57	0.17619453
236	0x3c2932b0	0.010327026
237	0xbd55b27b	-0.052172165
238	0xbd6db117	-0.058030214
239	0xbcee8770	-0.029117316
240	0xbd49be03	-0.049253475
241	0x3c93564d	0.017985487
242	0xbd12804b	-0.03576688
243	0xbd1c8901	-0.038216595
244	0x3cb2ad77	0.02181123
245	0x3d29826b	0.041384142
246	0x3dc98060	0.09838939
247	0x3dd32450	0.103096604
248	0x3dbd3a5e	0.09239648
249	0x3d600e0c	0.054700896
250	0x3e12471b	0.14284937
251	0xbcc3bfc1	-0.023895146
252	0xbcf79ad2	-0.030225191
253	0x3d3fb16c	0.046800062
254	0x3c8f402e	0.017486658
255	0x3d73dcc2	0.059536703

fc1.bias f4 [64]
0	0xbd7d9a1c	-0.06191455
1	0x3ee3785e	0.4442777
2	0x3e1707df	0.14749096
3	0xbc9d2cfc	-0.01918649
4	0xbe0ade3f	-0.13561343
5	0xbe05ab42	-0.13053611
6	0x3cbdae9a	0.023154546
7	0xbca315a4	-0.01990778
8	0xbe6652f0	-0.22492576
9	0x3d3f7203	0.04673959
10	0xbddffbfa	-0.109367326
11	0xbda85267	-0.08218842
12	0x3dfa38b1	0.12217844
13	0xbdcfb938	-0.101427495
14	0xbe373ef5	-0.1789511
15	0xbdb96f57	-0.090544395
16	0xbdcbb3c2	-0.099463955
17	0x3d976fef	0.073943965
18	0x3e6bafa1	0.23016216
19	0xbe3eac6c	-0.18620461
20	0xbc81053f	-0.015749572
21	0xbdadd30b	-0.08487519
22	0x3cd92408	0.026506439
23	0xbe370a09	-0.17874922
24	0x3e3a5927	0.18198071
25	0xbdcbdd8e	-0.099543676
26	0xbe514938	-0.20438087
27	0xbeca8c12	-0.3955999
28	0x3efd48ba	0.49469548
29	0x3d8ab9d3	0.067737244
30	0xbdc83d07	-0.09777265
31	0xbdf40e30	-0.119167686
32	0xbd90b684	-0.07066062
33	0xbe0edd6c	-0.13951653
34	0x3e289ab7	0.16465269
35	0x3e450d75	0.19243415
36	0x3d80c170	0.06286895
37	0xbd214292	-0.039370127
38	0x3e66ae95	0.22527535
39	0xbde0697c	-0.109576195
40	0xbdcd6bb9	-0.10030312
41	0x3e383b8a	0.17991462
42	0xbe17b50e	-0.1481516
43	0xbca40722	-0.020022932
44	0x3dc626ce	0.0967537
45	0xbd59456b	-0.053044718
46	0xbe5b6671	-0.21425797
47	0x3e83133e	0.25600618
48	0xbe0570f7	-0.13031374
49	0x3c1c9eb6	0.009559324
50	0xba5462d1	-0.0008101883
51	0x3af4a13b	0.0018663773
52	0xbe60cf53	-0.21954088
53	0xbe1564bf	-0.14589213
54	0x3dd2d2e0	0.102941275
55	0x3ca3cdf2	0.019995663
56	0x3ede55ea	0.43424922
57	0xbd07fdf4	-0.033201173
58	0xbd186ca3	-0.03721298
59	0xbc16f48e	-0.00921358
60	0x3d52325f	0.05131757
61	0xbdd6516e	-0.1046475
62	0xbdac029a	-0.08398934
63	0xbdd54da4	-0.104151994

fc2.weight f4 [4, 64]
0	0xbed5a5e5	-0.4172813
1	0x3e811aa4	0.25215638
2	0x3d34a552	0.044102974
3	0x3d5a2947	0.05326202
4	0x3df38130	0.11889875
5	0x3d56bd4d	0.052426625
6	0x3ecd7973	0.4013172
7	0xbe130fbd	-0.14361472
8	0xbdf9bc8f	-0.12194168
9	0x3b21867d	0.0024646812
10	0xbd034d3e	-0.032056086
11	0xbea51184	-0.32239926
12	0x3dc1fcb1	0.09472025
13	0xb891be80	-6.949622e-05
14	0x3dcaee61	0.099087484
15	0x3cbb1bbd	0.022840375
16	0x3ca45200	0.020058632
17	0xbe091f73	-0.13390903
18	0x3dc03af0	0.093862414
19	0x3d16a305	0.03677656
20	0x3dccfeb2	0.10009517
21	0x3d95e46b	0.07318958
22	0x3d846121	0.06463838
23	0xbe406358	-0.18787897
24	0x3e149267	0.14508973
25	0x3eac8fa3	0.33703336
26	0x3ebcfa25	0.36909595
27	0x3e764049	0.2404796
28	0x3e8c2ec1	0.2737942
29	0x3eb98eff	0.3624191
30	0xbcc5d8a6	-0.024151158
31	0x3de8675a	0.11347838
32	0x3cb53938	0.02212201
33	0x3db82c0c	0.08992776
34	0x3def5537	0.11686175
35	0xbf4edf3c	-0.8080938
36	0x3cba52b0	0.022744507
37	0xbe568692	-0.20949772
38	0x3d7fc395	0.06244238
39	0xbd9b7bc1	-0.075919636
40	0xbdbaa37b	-0.09113213
41	0x3d8e8197	0.06958311
42	0xbc8fb86a	-0.01754399
43	0x3d096568	0.033543974
44	0x3c761177	0.015018812
45	0x3d0d69e4	0.034524813
46	0x3d7c99e7	0.06167021
47	0x3d9976bc	0.0749335
48	0x3bc9e449	0.006161247
49	0xbe5c6701	-0.21523668
50	0x3ea5e9b2	0.32404858
51	0xbd08eaca	-0.033427037
52	0xbe3e93a0	-0.18611002
53	0xbd61dc4e	-0.05514174
54	0x3d926551	0.07148231
55	0x3e87013a	0.26368123
56	0x3e703593	0.23457937
57	0xbaf9e429	-0.0019065189
58	0x3f5fa813	0.87365836
59	0x3e2db062	0.16961816
60	0x3c3b7172	0.011440622
61	0xbde2b914	-0.11070457
62	0xbd7fdb4f	-0.06246501
63	0xbe2abb9b	-0.16673128
64	0x3e0649d2	0.13114098
65	0x3e2dc821	0.16970874
66	0x3cb7dbc7	0.022443665
67	0xbdd7b164	-0.105318815
68	0x3e42ae0f	0.1901171
69	0xbd899b19	-0.06719036
70	0x3ea833dc	0.32852066
71	0xbde3e9ec	-0.111286014
72	0xbb89a598	-0.0042006485
73	0x3de3085f	0.11085581
74	0x3cd81f2d	0.026382053
75	0x3c21e1e4	0.009880517
76	0x3ddc10a5	0.10745362
77	0xbd52b5f2	-0.051443048
78	0x3e995b02	0.29952246
79	0x3d8bf056	0.0683295
80	0x3c47dc01	0.012198449
81	0xbe251941	-0.16122915
82	0x3dbfdcb2	0.09368266
83	0xbdb963be	-0.090522274
84	0x3d8ef383	0.0698004
85	0x3e85de64	0.26146233
86	0xbd9e199a	-0.07719727
87	0x3bd5812b	0.006515642
88	0x3d8d6233	0.06903496
89	0x3e589b0a	0.21152893
90	0x3eee92bb	0.4659632
91	0xbd00b6f2	-0.03142447
92	0x3e5a3310	0.21308541
93	0x3e976d11	0.295754
94	0x3ef4814f	0.47754905
95	0xbcc5bb51	-0.024137171
96	0x3d9f3e9d	0.077756144
97	0xbdc9e3b1	-0.09857882
98	0x3e0376e6	0.12838325
99	0xbdfe6540	-0.12421656
100	0xbde8c7dc	-0.11366245
101	0x3c4b7e3f	0.012420236
102	0x3d96d37b	0.073645554
103	0xbdbe6d40	-0.092981815
104	0x3d49b7eb	0.049247663
105	0x3dd15ad0	0.10222399
106	0xbe8f18e0	-0.27948666
107	0x3da04207	0.07825094
108	0x3d58d3d5	0.052936394
109	0x3da2a6e5	0.07941989
110	0xbc14be17	-0.009078524
111	0x3e35e480	0.17762947
112	0x3e0111f6	0.12604508
113	0xbd95faaf	-0.07323205
114	0x3e6ec49c	0.23317188
115	0xbd0570d0	-0.03257829
116	0xbde4abcd	-0.11165581
117	0xbd2c7c9d	-0.042111028
118	0x3da43477	0.080178194
119	0x3e373144	0.17889887
120	0x3e631daa	0.22179285
121	0xbdeb2b24	-0.11482838
122	0x3eedb675	0.46428266
123	0x3da69115	0.08133141
124	0x3eb3382f	0.35003802
125	0x3e657be0	0.22410536
126	0xbd39e47f	-0.045383926
127	0xbd692996	-0.056924425
128	0xbe4cef75	-0.2001322
129	0x3e1e4a4e	0.15458032
130	0x3dfd1f17	0.123594455
131	0xbe0610e2	-0.13092378
132	0x3db83d0f	0.08996021
133	0xbdd2c1fe	-0.10290907
134	0xbd3b7033	-0.0457613
135	0xbdd64f79	-0.10464377
136	0x3dffb70d	0.12486086
137	0x3d75637a	0.05990932
138	0x3e12e575	0.14345343
139	0xbe8119e6	-0.2521507
140	0x3d8eb9ee	0.06969057
141	0xbc6e035c	-0.014527168
142	0x3f3e21c5	0.7427028
143	0x3db75f92	0.089537755
144	0x3c65bcb0	0.014022037
145	0xbea59c13	-0.32345638
146	0xbcf184a7	-0.029482199
147	0x3ca03efe	0.019561287
148	0xbda3c07b	-0.07995697
149	0xbc335c7c	-0.010947343
150	0xbc863712	-0.016383681
151	0xbe42b9cc	-0.19016188
152	0x3dcc41af	0.09973466
153	0xbc695767	-0.01424203
154	0x3ef9a603	0.4875947
155	0x3f39b776	0.72545564
156	0x3e5fe636	0.21865162
157	0x3dd798fb	0.105272256
158	0x3f829e1d	1.0204502
159	0xbd04c8eb	-0.032418173
160	0x3e3281cb	0.17432325
161	0xbcb374ee	-0.021906342
162	0x3e1839bc	0.14865774
163	0xbe3da1f5	-0.18518813
164	0x3d87eed4	0.0663735
165	0xbd80ac51	-0.06282867
166	0x3d6a4cb8	0.05720207
167	0x3c10b2ec	0.008831721
168	0xbe1cf65c	-0.15328354
169	0x3dab5ca7	0.083672814
170	0x3d7611fc	0.060075745
171	0x3d9de2ef	0.077093
172	0x3cb07b54	0.021543182
173	0x3d19be26	0.037534855
174	0x3dc4329e	0.09579967
175	0x3e149fe1	0.14514114
176	0x3efd166f	0.49431178
177	0xbd5e6838	-0.05429861
178	0x3d4da727	0.050208237
179	0xbed6b418	-0.41934276
180	0xbda55d0f	-0.0807439
181	0x3cf5a172	0.02998421
182	0x3ddac530	0.10682142
183	0x3e3eee2f	0.18645547
184	0x3e62b641	0.22139837
185	0x3db9b198	0.090670764
186	0x3eb028ae	0.34406036
187	0x3d8c09e9	0.06837828
188	0x3f65776e	0.8963536
189	0x3e3ea03d	0.18615814
190	0xbe056231	-0.13025738
191	0xbdda9e22	-0.10674693
192	0xbdd145e0	-0.10218406
193	0x3e2db613	0.16963987
194	0xbc4e105b	-0.012577142
195	0xbe73fa99	-0.23826064
196	0x3f0787a2	0.52941334
197	0xbe4093bd	-0.18806358
198	0xbddcf0a6	-0.107880875
199	0xbdb93d5c	-0.090449065
200	0xbdc809e0	-0.097675085
201	0x3dcb24fb	0.09919163
202	0x3db83f47	0.08996444
203	0x3b239b57	0.0024964416
204	0x3e0dd287	0.13849841
205	0xbe954223	-0.2915202
206	0x3e0b4d9f	0.13603829
207	0x3d9d8097	0.07690542
208	0xbea62d1f	-0.324563
209	0xbc656a17	-0.014002345
210	0x3d6ad2ff	0.057330128
211	0x3df2dc46	0.1185842
212	0x3a5ed5a6	0.0008500464
213	0x3f4e98a0	0.8070164
214	0x3e0cc1e8	0.13745844
215	0xbd580382	-0.05273772
216	0x3e2f6b36	0.17130741
217	0xbd50f498	-0.051014513
218	0x3de47372	0.11154832
219	0x3f0dc049	0.5537153
220	0x3e3f8bd6	0.18705687
221	0x3f68a5a3	0.9087774
222	0x3dbac6a2	0.091199175
223	0xbdb5c34c	-0.088751405
224	0x3d9819da	0.07426806
225	0x3dbdf201	0.09274674
226	0x3dcc2a16	0.09968965
227	0xbdb568e5	-0.08857898
228	0xbd5fff02	-0.054686554
229	0xbe417173	-0.18890934
230	0x3df4335a	0.11923857
231	0xbd80196e	-0.0625485
232	0x3d3e0099	0.04638729
233	0x3d1d37dd	0.038383354
234	0x3c3430e6	0.010997986
235	0x3e1da8f7	0.15396486
236	0x3e51ff90	0.20507646
237	0x3db2e8d6	0.08735816
238	0x3e01c15e	0.1267142
239	0x3e209fab	0.15685908
240	0xbd09f555	-0.033681232
241	0xbe079edb	-0.13244192
242	0x3e12e6e4	0.1434589
243	0x3d7b7732	0.06139297
244	0xbd667017	-0.05625924
245	0xbd91dd97	-0.07122343
246	0x3daa3e29	0.08312637
247	0xbe25bd99	-0.16185607
248	0x3e3b39ab	0.18283717
249	0xbdc98774	-0.09840289
250	0xbe50b12a	-0.20380083
251	0x3d7d1249	0.061785016
252	0x3d10ac2e	0.035320453
253	0x3f31d738	0.6946902
254	0xbe399f79	-0.1812724
255	0xbe7386dd	-0.23781915

fc2.bias f4 [4]
0	0x3e494e34	0.19658738
1	0x3e872f77	0.264034
2	0x3eb7f2c7	0.35927412
3	0x3ea9d9d1	0.33173993
